==========================================================================================
Layer (type:depth-idx)                   Output Shape              Param #
==========================================================================================
VocoMorphUnet                            [1, 1, 16000]             --
├─EffectEncoder: 1-1                     [1, 32]                   --
│    └─Embedding: 2-1                    [1, 1, 32]                160
├─ModuleList: 1-14                       --                        (recursive)
│    └─Encoder: 2-2                      [1, 32, 2048]             --
│    │    └─ConvBlock: 3-1               [1, 32, 4096]             192
│    │    └─FiLM: 3-2                    [1, 32, 4096]             2,112
│    │    └─MaxPool1d: 3-3               [1, 32, 2048]             --
│    └─Encoder: 2-3                      [1, 64, 1024]             --
│    │    └─ConvBlock: 3-4               [1, 64, 2048]             6,336
│    │    └─FiLM: 3-5                    [1, 64, 2048]             4,224
│    │    └─MaxPool1d: 3-6               [1, 64, 1024]             --
│    └─Encoder: 2-4                      [1, 128, 512]             --
│    │    └─ConvBlock: 3-7               [1, 128, 1024]            24,960
│    │    └─FiLM: 3-8                    [1, 128, 1024]            8,448
│    │    └─MaxPool1d: 3-9               [1, 128, 512]             --
│    └─Encoder: 2-5                      [1, 256, 256]             --
│    │    └─ConvBlock: 3-10              [1, 256, 512]             99,072
│    │    └─FiLM: 3-11                   [1, 256, 512]             16,896
│    │    └─MaxPool1d: 3-12              [1, 256, 256]             --
│    └─Encoder: 2-6                      [1, 512, 128]             --
│    │    └─ConvBlock: 3-13              [1, 512, 256]             394,752
│    │    └─FiLM: 3-14                   [1, 512, 256]             33,792
│    │    └─MaxPool1d: 3-15              [1, 512, 128]             --
├─ModuleList: 1-15                       --                        (recursive)
│    └─Encoder: 2-7                      [1, 1024, 128]            --
│    │    └─ConvBlock: 3-16              [1, 1024, 128]            1,575,936
│    │    └─FiLM: 3-17                   [1, 1024, 128]            67,584
│    │    └─Identity: 3-18               [1, 1024, 128]            --
│    └─Encoder: 2-8                      [1, 1024, 128]            --
│    │    └─ConvBlock: 3-19              [1, 1024, 128]            3,148,800
│    │    └─FiLM: 3-20                   [1, 1024, 128]            67,584
│    │    └─Identity: 3-21               [1, 1024, 128]            --
├─ModuleList: 1-16                       --                        (recursive)
│    └─Decoder: 2-9                      [1, 512, 256]             --
│    │    └─DeconvBlock: 3-22            [1, 512, 256]             3,148,800
│    │    └─FiLM: 3-23                   [1, 512, 256]             33,792
│    └─Decoder: 2-10                     [1, 256, 512]             --
│    │    └─DeconvBlock: 3-24            [1, 256, 512]             787,968
│    │    └─FiLM: 3-25                   [1, 256, 512]             16,896
│    └─Decoder: 2-11                     [1, 128, 1024]            --
│    │    └─DeconvBlock: 3-26            [1, 128, 1024]            197,376
│    │    └─FiLM: 3-27                   [1, 128, 1024]            8,448
│    └─Decoder: 2-12                     [1, 64, 2048]             --
│    │    └─DeconvBlock: 3-28            [1, 64, 2048]             49,536
│    │    └─FiLM: 3-29                   [1, 64, 2048]             4,224
│    └─Decoder: 2-13                     [1, 32, 4096]             --
│    │    └─DeconvBlock: 3-30            [1, 32, 4096]             12,480
│    │    └─FiLM: 3-31                   [1, 32, 4096]             2,112
├─Conv1d: 1-5                            [1, 1, 4096]              33
├─ModuleList: 1-14                       --                        (recursive)
│    └─Encoder: 2-14                     [1, 32, 2048]             (recursive)
│    │    └─ConvBlock: 3-32              [1, 32, 4096]             (recursive)
│    │    └─FiLM: 3-33                   [1, 32, 4096]             (recursive)
│    │    └─MaxPool1d: 3-34              [1, 32, 2048]             --
│    └─Encoder: 2-15                     [1, 64, 1024]             (recursive)
│    │    └─ConvBlock: 3-35              [1, 64, 2048]             (recursive)
│    │    └─FiLM: 3-36                   [1, 64, 2048]             (recursive)
│    │    └─MaxPool1d: 3-37              [1, 64, 1024]             --
│    └─Encoder: 2-16                     [1, 128, 512]             (recursive)
│    │    └─ConvBlock: 3-38              [1, 128, 1024]            (recursive)
│    │    └─FiLM: 3-39                   [1, 128, 1024]            (recursive)
│    │    └─MaxPool1d: 3-40              [1, 128, 512]             --
│    └─Encoder: 2-17                     [1, 256, 256]             (recursive)
│    │    └─ConvBlock: 3-41              [1, 256, 512]             (recursive)
│    │    └─FiLM: 3-42                   [1, 256, 512]             (recursive)
│    │    └─MaxPool1d: 3-43              [1, 256, 256]             --
│    └─Encoder: 2-18                     [1, 512, 128]             (recursive)
│    │    └─ConvBlock: 3-44              [1, 512, 256]             (recursive)
│    │    └─FiLM: 3-45                   [1, 512, 256]             (recursive)
│    │    └─MaxPool1d: 3-46              [1, 512, 128]             --
├─ModuleList: 1-15                       --                        (recursive)
│    └─Encoder: 2-19                     [1, 1024, 128]            (recursive)
│    │    └─ConvBlock: 3-47              [1, 1024, 128]            (recursive)
│    │    └─FiLM: 3-48                   [1, 1024, 128]            (recursive)
│    │    └─Identity: 3-49               [1, 1024, 128]            --
│    └─Encoder: 2-20                     [1, 1024, 128]            (recursive)
│    │    └─ConvBlock: 3-50              [1, 1024, 128]            (recursive)
│    │    └─FiLM: 3-51                   [1, 1024, 128]            (recursive)
│    │    └─Identity: 3-52               [1, 1024, 128]            --
├─ModuleList: 1-16                       --                        (recursive)
│    └─Decoder: 2-21                     [1, 512, 256]             (recursive)
│    │    └─DeconvBlock: 3-53            [1, 512, 256]             (recursive)
│    │    └─FiLM: 3-54                   [1, 512, 256]             (recursive)
│    └─Decoder: 2-22                     [1, 256, 512]             (recursive)
│    │    └─DeconvBlock: 3-55            [1, 256, 512]             (recursive)
…
│    └─Decoder: 2-25                     [1, 32, 4096]             (recursive)
│    │    └─DeconvBlock: 3-61            [1, 32, 4096]             (recursive)
│    │    └─FiLM: 3-62                   [1, 32, 4096]             (recursive)
├─Conv1d: 1-9                            [1, 1, 4096]              (recursive)
├─ModuleList: 1-14                       --                        (recursive)
│    └─Encoder: 2-26                     [1, 32, 2048]             (recursive)
│    │    └─ConvBlock: 3-63              [1, 32, 4096]             (recursive)
│    │    └─FiLM: 3-64                   [1, 32, 4096]             (recursive)
│    │    └─MaxPool1d: 3-65              [1, 32, 2048]             --
│    └─Encoder: 2-27                     [1, 64, 1024]             (recursive)
│    │    └─ConvBlock: 3-66              [1, 64, 2048]             (recursive)
│    │    └─FiLM: 3-67                   [1, 64, 2048]             (recursive)
│    │    └─MaxPool1d: 3-68              [1, 64, 1024]             --
│    └─Encoder: 2-28                     [1, 128, 512]             (recursive)
│    │    └─ConvBlock: 3-69              [1, 128, 1024]            (recursive)
│    │    └─FiLM: 3-70                   [1, 128, 1024]            (recursive)
│    │    └─MaxPool1d: 3-71              [1, 128, 512]             --
│    └─Encoder: 2-29                     [1, 256, 256]             (recursive)
│    │    └─ConvBlock: 3-72              [1, 256, 512]             (recursive)
│    │    └─FiLM: 3-73                   [1, 256, 512]             (recursive)
│    │    └─MaxPool1d: 3-74              [1, 256, 256]             --
│    └─Encoder: 2-30                     [1, 512, 128]             (recursive)
│    │    └─ConvBlock: 3-75              [1, 512, 256]             (recursive)
│    │    └─FiLM: 3-76                   [1, 512, 256]             (recursive)
│    │    └─MaxPool1d: 3-77              [1, 512, 128]             --
├─ModuleList: 1-15                       --                        (recursive)
│    └─Encoder: 2-31                     [1, 1024, 128]            (recursive)
│    │    └─ConvBlock: 3-78              [1, 1024, 128]            (recursive)
│    │    └─FiLM: 3-79                   [1, 1024, 128]            (recursive)
│    │    └─Identity: 3-80               [1, 1024, 128]            --
│    └─Encoder: 2-32                     [1, 1024, 128]            (recursive)
│    │    └─ConvBlock: 3-81              [1, 1024, 128]            (recursive)
│    │    └─FiLM: 3-82                   [1, 1024, 128]            (recursive)
│    │    └─Identity: 3-83               [1, 1024, 128]            --
├─ModuleList: 1-16                       --                        (recursive)
│    └─Decoder: 2-33                     [1, 512, 256]             (recursive)
│    │    └─DeconvBlock: 3-84            [1, 512, 256]             (recursive)
│    │    └─FiLM: 3-85                   [1, 512, 256]             (recursive)
│    └─Decoder: 2-34                     [1, 256, 512]             (recursive)
│    │    └─DeconvBlock: 3-86            [1, 256, 512]             (recursive)
…
